src/transformers/test.onnx/model.onnx (onnx, 519916 bytes, 87 tensors)

shared.weight f4 [58101, 2]
0	0xbb934000	-0.0044937134
1	0x3c974000	0.018463135
2	0xbc15e000	-0.009147644
3	0xbd4b0000	-0.049560547
4	0xbbe5a000	-0.007007599
5	0xbba48000	-0.0050201416
6	0xbc85e000	-0.016342163
7	0x3c650000	0.013977051
8	0xbb95a000	-0.0045661926
9	0xbb888000	-0.0041656494
10	0xbcbea000	-0.023269653
11	0x3c9c4000	0.019073486
12	0x3d0f6000	0.035003662
13	0x3d2ca000	0.042144775
14	0x3c182000	0.009284973
15	0xbcb36000	-0.021896362
16	0xbd230000	-0.039794922
17	0x3bc52000	0.0060157776
18	0x3cbb6000	0.022872925
19	0xbc67a000	-0.014137268
20	0xbca4e000	-0.020126343
21	0x393a6000	0.00017774105
22	0x3d392000	0.045196533
23	0x3abfa000	0.0014619827
24	0x3ca82000	0.020523071
25	0xbb080000	-0.0020751953
26	0xbb6fa000	-0.0036563873
27	0x3c55a000	0.013038635
28	0x3bece000	0.0072288513
29	0xbcc06000	-0.023483276
30	0x3c81e000	0.015853882
31	0x3bd44000	0.006477356
32	0xbcbb0000	-0.022827148
33	0xbce54000	-0.02798462
34	0x3d130000	0.035888672
35	0x3c638000	0.013885498
36	0x3c32c000	0.010910034
37	0x3bfc2000	0.0076942444
38	0xbb106000	-0.0022029877
39	0xbb418000	-0.0029525757
40	0x3c916000	0.017745972
41	0x3cc9c000	0.024627686
42	0xbd136000	-0.035980225
43	0xbc666000	-0.014060974
44	0x3c5b4000	0.013381958
45	0xbccb4000	-0.024810791
46	0xbc710000	-0.014709473
47	0x3b558000	0.0032577515
48	0x3d2f4000	0.042785645
49	0x3cfb8000	0.030700684
50	0xbbc8a000	-0.006122589
51	0xba904000	-0.0011005402
52	0x3cf52000	0.029922485
53	0xbbfae000	-0.0076560974
54	0xbbd16000	-0.006389618
55	0x3993c000	0.00028181076
56	0xbce32000	-0.02772522
57	0xbc79a000	-0.015235901
58	0x3c132000	0.008979797
59	0x3976e000	0.00023543835
60	0x3c848000	0.016174316
61	0x3b800000	0.00390625
62	0x3b9d6000	0.004802704
63	0xbcfc2000	-0.030776978
64	0x3bf98000	0.0076141357
65	0xbc824000	-0.015899658
66	0xbd04a000	-0.03237915
67	0x3bef2000	0.007297516
68	0x3b0fa000	0.0021915436
69	0x3c782000	0.015144348
70	0xbb4dc000	-0.0031394958
71	0x3b99c000	0.0046920776
72	0x3bb88000	0.005630493
73	0x3cb1a000	0.02168274
74	0xbc04c000	-0.008102417
75	0x3c0ea000	0.008705139
76	0x3c9f4000	0.019439697
77	0xbc3fe000	-0.011711121
78	0xbbbe6000	-0.005809784
79	0xbc028000	-0.007965088
80	0xbcd58000	-0.026062012
81	0x3c858000	0.016296387
82	0x3c5cc000	0.013473511
83	0xbcdea000	-0.027175903
84	0x3c904000	0.017608643
85	0x3d240000	0.040039062
86	0xbd216000	-0.039398193
87	0x3cba4000	0.022735596
88	0x3d35a000	0.04434204
89	0x3c27a000	0.010231018
90	0xbc154000	-0.009109497
91	0x3b68c000	0.0035514832
92	0x3bc7a000	0.0060920715
93	0xbc36e000	-0.011161804
94	0xbccd8000	-0.02508545
95	0xbbe08000	-0.0068511963
96	0x3ccf2000	0.025283813
97	0xbcbe6000	-0.023239136
98	0xbaff6000	-0.0019483566
99	0xbd156000	-0.036468506
100	0x3cb98000	0.022644043
101	0xbb6b2000	-0.0035877228
102	0x3d0cc000	0.034362793
103	0x3d040000	0.032226562
104	0xbb410000	-0.0029449463
105	0x3bb8a000	0.005634308
106	0xbc1e2000	-0.009651184
107	0x3c86a000	0.016433716
108	0xbcae2000	-0.021255493
109	0xbc698000	-0.014251709
110	0x3c69e000	0.014274597
111	0x3a534000	0.0008058548
112	0x3cdf8000	0.027282715
113	0xbc668000	-0.0140686035
114	0x393d6000	0.00018060207
115	0xb9f98000	-0.00047588348
116	0x3c3aa000	0.011390686
117	0x3c322000	0.010871887
118	0x3c256000	0.010093689
119	0xbb5c0000	-0.0033569336
120	0xbc9e2000	-0.019302368
121	0x3ce72000	0.028213501
122	0xba4a0000	-0.00077056885
123	0xbc1e0000	-0.009643555
124	0xbc730000	-0.014831543
125	0xbd042000	-0.03225708
126	0xbbe18000	-0.006881714
127	0xbd118000	-0.03552246
128	0x3c9b2000	0.018936157
129	0xb953c000	-0.00020194054
130	0xbc39e000	-0.01134491
131	0xbcc3a000	-0.023880005
132	0x3beca000	0.007221222
133	0x3c014000	0.007888794
134	0x3ba50000	0.0050354004
135	0xbc1e8000	-0.009674072
136	0xbd100000	-0.03515625
137	0x3cc06000	0.023483276
138	0xbcc66000	-0.024215698
139	0x3c550000	0.013000488
140	0xbb96a000	-0.00459671
141	0xbcd54000	-0.026031494
142	0xbca58000	-0.020202637
143	0x3cfba000	0.030715942
144	0xbd286000	-0.041107178
145	0x3c190000	0.009338379
146	0xbbace000	-0.0052757263
147	0x3d154000	0.03643799
148	0x3c960000	0.018310547
149	0x3cc8a000	0.024490356
150	0x3c3e4000	0.0116119385
151	0x3d030000	0.031982422
152	0xbc428000	-0.011871338
153	0x3c958000	0.018249512
154	0xbc9be000	-0.01902771
155	0x3ad72000	0.0016412735
156	0x3b180000	0.002319336
157	0xbd19a000	-0.037506104
158	0x3bf8c000	0.0075912476
159	0x3c9f6000	0.019454956
160	0x3cbc2000	0.022964478
161	0x3bf1a000	0.00737381
162	0x3c0fc000	0.008773804
163	0x3ca40000	0.020019531
164	0x3cc78000	0.024353027
165	0x3c332000	0.010932922
166	0xbc648000	-0.013946533
167	0x3bbf2000	0.005832672
168	0xbba88000	-0.005142212
169	0xbc59c000	-0.013290405
170	0x3bbaa000	0.005695343
171	0xbad9e000	-0.0016622543
172	0xbbec6000	-0.0072135925
173	0x3cf70000	0.030151367
174	0x3bcf4000	0.006324768
175	0xb95ba000	-0.00020945072
176	0x3c834000	0.016021729
177	0xbb8ac000	-0.004234314
178	0x3c238000	0.009979248
179	0x3a8f8000	0.0010948181
180	0x3b9da000	0.0048103333
181	0x3c3c2000	0.011482239
182	0xbc650000	-0.013977051
183	0xbc87c000	-0.016571045
184	0x3d392000	0.045196533
185	0xbcb68000	-0.022277832
186	0xbc5c0000	-0.013427734
187	0xbc866000	-0.016403198
188	0xbc814000	-0.015777588
189	0x3a2a6000	0.00064992905
190	0xbc91c000	-0.017791748
191	0x3c7da000	0.0154800415
192	0x3b882000	0.0041542053
193	0xbcc02000	-0.023452759
194	0xbc918000	-0.01776123
195	0xbc74a000	-0.014930725
196	0x3b116000	0.0022182465
197	0x3b8f0000	0.0043640137
198	0xbbb7a000	-0.0056037903
199	0x3cd4e000	0.025985718
200	0x3cdd8000	0.027038574
201	0x3c830000	0.015991211
202	0xbd234000	-0.039855957
203	0xbc614000	-0.013748169
204	0x3ca28000	0.019836426
205	0x3d160000	0.036621094
206	0x3ad9a000	0.001660347
207	0x3cc4a000	0.024002075
208	0xbd478000	-0.048706055
209	0xbcee8000	-0.02911377
210	0x3ce34000	0.027740479
211	0x3cfae000	0.03062439
212	0x3ca6e000	0.020370483
213	0x3a4de000	0.0007853508
214	0x3c978000	0.018493652
215	0x3ca40000	0.020019531
216	0x3cc8c000	0.024505615
217	0x3caa6000	0.02079773
218	0x3b09e000	0.0021038055
219	0x3ce5a000	0.028030396
220	0xbbbe4000	-0.0058059692
221	0xbcb3e000	-0.021957397
222	0x3d73e000	0.059539795
223	0xbd1b2000	-0.037872314
224	0xbb610000	-0.0034332275
225	0xbc786000	-0.015159607
226	0x3bb8e000	0.0056419373
227	0x3c2ec000	0.010665894
228	0x3c2fa000	0.010719299
229	0x3c1ac000	0.00944519
230	0xbc0fa000	-0.008766174
231	0xbbef4000	-0.0073013306
232	0xbbfe4000	-0.0077590942
233	0x3ca9e000	0.020736694
234	0xbbe56000	-0.0069999695
235	0x3c1e8000	0.009674072
236	0xbaa1c000	-0.0012340546
237	0xbaeee000	-0.0018224716
238	0xbbcd6000	-0.0062675476
239	0x3c65e000	0.014030457
240	0xbb61a000	-0.0034427643
241	0xbbba0000	-0.0056762695
242	0xbc4fe000	-0.012687683
243	0x3c6da000	0.014503479
244	0x3cb6c000	0.02230835
245	0x3b2d4000	0.0026435852
246	0x3c38c000	0.011276245
247	0x3b16e000	0.0023021698
248	0x3c82c000	0.015960693
249	0x3c984000	0.018585205
250	0x3b6dc000	0.003627777
251	0xbc40a000	-0.011756897
252	0x3c952000	0.018203735
253	0x3c5f4000	0.013626099
254	0x3c7f2000	0.015571594
255	0x3cb90000	0.022583008

encoder.embed_positions.weight f4 [512, 2]
0	0x00000000	0.0
1	0x3f800000	1.0
2	0x3f576000	0.8413086
3	0x3f0a6000	0.54052734
4	0x3f68c000	0.9091797
5	0xbed52000	-0.41625977
6	0x3e108000	0.14111328
7	0xbf7d8000	-0.9902344
8	0xbf41c000	-0.75683594
9	0xbf276000	-0.6538086
10	0xbf758000	-0.9589844
11	0x3e914000	0.2836914
12	0xbe8f0000	-0.27929688
13	0x3f75c000	0.95996094
14	0x3f284000	0.65722656
15	0x3f410000	0.75390625
16	0x3f7d4000	0.9892578
17	0xbe150000	-0.14550781
18	0x3ed30000	0.41210938
19	0xbf694000	-0.9111328
20	0xbf0b4000	-0.5439453
21	0xbf56c000	-0.8388672
22	0xbf800000	-1.0
23	0x3b910000	0.004425049
24	0xbf096000	-0.5366211
25	0x3f580000	0.84375
26	0x3ed72000	0.42016602
27	0x3f684000	0.90722656
28	0x3f7da000	0.99072266
29	0x3e0c0000	0.13671875
30	0x3f268000	0.6503906
31	0xbf428000	-0.7597656
32	0xbe936000	-0.2878418
33	0xbf752000	-0.95751953
34	0xbf762000	-0.9614258
35	0xbe8ce000	-0.27514648
36	0xbf404000	-0.75097656
37	0x3f290000	0.66015625
38	0x3e198000	0.14990234
39	0x3f7d2000	0.98876953
40	0x3f69c000	0.91308594
41	0x3ed10000	0.40820312
42	0x3f562000	0.8364258
43	0xbf0c4000	-0.54785156
44	0xbc110000	-0.008850098
45	0xbf800000	-1.0
46	0xbf58a000	-0.8461914
47	0xbf086000	-0.53271484
48	0xbf67e000	-0.9057617
49	0x3ed92000	0.42407227
50	0xbe078000	-0.13232422
51	0x3f7dc000	0.99121094
52	0x3f434000	0.7626953
53	0x3f25a000	0.64697266
54	0x3f74e000	0.95654297
55	0xbe95a000	-0.29223633
56	0x3e8ac000	0.2709961
57	0xbf766000	-0.96240234
58	0xbf29e000	-0.6635742
59	0xbf3f8000	-0.7480469
60	0xbf7ce000	-0.98779297
61	0x3e1e0000	0.15429688
62	0xbecee000	-0.40405273
63	0x3f6a2000	0.9145508
64	0x3f0d2000	0.55126953
65	0x3f558000	0.8339844
66	0x3f800000	1.0
67	0xbc598000	-0.0132751465
68	0x3f078000	0.5292969
69	0xbf594000	-0.8486328
70	0xbedb4000	-0.42822266
71	0xbf676000	-0.9038086
72	0xbf7de000	-0.9916992
73	0xbe030000	-0.12792969
74	0xbf24c000	-0.6435547
75	0x3f440000	0.765625
76	0x3e97c000	0.29638672
77	0x3f748000	0.9550781
78	0x3f76c000	0.9638672
79	0x3e888000	0.26660156
80	0x3f3ec000	0.7451172
81	0xbf2ac000	-0.6669922
82	0xbe226000	-0.15856934
83	0xbf7cc000	-0.9873047
84	0xbf6aa000	-0.9165039
85	0xbeccc000	-0.39990234
86	0xbf54e000	-0.83154297
87	0x3f0e2000	0.5551758
88	0x3c910000	0.017700195
89	0x3f800000	1.0
90	0x3f59e000	0.8510742
91	0x3f068000	0.5253906
92	0x3f66e000	0.90185547
93	0xbedd4000	-0.4321289
94	0x3dfd2000	0.12359619
95	0xbf7e0000	-0.9921875
96	0xbf44a000	-0.7680664
97	0xbf23e000	-0.6401367
98	0xbf742000	-0.9536133
99	0x3e99e000	0.3005371
100	0xbe866000	-0.26245117
101	0x3f770000	0.96484375
102	0x3f2ba000	0.67041016
103	0x3f3e0000	0.7421875
104	0x3f7ca000	0.9868164
105	0xbe26e000	-0.16296387
106	0x3ecac000	0.3959961
107	0xbf6b2000	-0.91845703
108	0xbf0f0000	-0.55859375
109	0xbf544000	-0.82910156
110	0xbf7fe000	-0.9995117
111	0x3cb54000	0.022125244
112	0xbf058000	-0.5214844
113	0x3f5a6000	0.85302734
114	0x3edf6000	0.4362793
115	0x3f666000	0.89990234
116	0x3f7e2000	0.9926758
117	0x3df42000	0.11920166
118	0x3f230000	0.63671875
119	0xbf456000	-0.7709961
120	0xbe9c2000	-0.30493164
121	0xbf73e000	-0.9526367
122	0xbf776000	-0.9663086
123	0xbe842000	-0.25805664
124	0xbf3d4000	-0.7392578
125	0x3f2c6000	0.67333984
126	0x3e2b6000	0.1673584
127	0x3f7c6000	0.98583984
128	0x3f6b8000	0.9199219
129	0x3ec8a000	0.3918457
130	0x3f53a000	0.82666016
131	0xbf100000	-0.5625
132	0xbcd98000	-0.026550293
133	0xbf7fe000	-0.9995117
134	0xbf5b0000	-0.85546875
135	0xbf048000	-0.5175781
136	0xbf65e000	-0.8979492
137	0x3ee16000	0.44018555
138	0xbdeb2000	-0.11480713
139	0x3f7e4000	0.99316406
140	0x3f462000	0.7739258
141	0x3f222000	0.6333008
142	0x3f738000	0.9511719
143	0xbe9e4000	-0.30908203
144	0x3e820000	0.25390625
145	0xbf77a000	-0.96728516
146	0xbf2d4000	-0.6767578
147	0xbf3c8000	-0.7363281
148	0xbf7c4000	-0.98535156
149	0x3e2fe000	0.17175293
150	0xbec68000	-0.3876953
151	0x3f6c0000	0.921875
152	0x3f10e000	0.56591797
153	0x3f530000	0.82421875
154	0x3f7fe000	0.9995117
155	0xbcfdc000	-0.030975342
156	0x3f03a000	0.51416016
157	0xbf5ba000	-0.85791016
158	0xbee36000	-0.4440918
159	0xbf656000	-0.8959961
160	0xbf7e6000	-0.99365234
161	0xbde22000	-0.1104126
162	0xbf214000	-0.6298828
163	0x3f46e000	0.77685547
164	0x3ea06000	0.31323242
165	0x3f732000	0.94970703
166	0x3f77e000	0.9682617
167	0x3e7f8000	0.24951172
168	0x3f3bc000	0.73339844
169	0xbf2e2000	-0.6801758
170	0xbe344000	-0.17602539
171	0xbf7c0000	-0.984375
172	0xbf6c6000	-0.92333984
173	0xbec48000	-0.38378906
174	0xbf526000	-0.82177734
175	0x3f11e000	0.5698242
176	0x3d110000	0.03540039
177	0x3f7fe000	0.9995117
178	0x3f5c2000	0.8598633
179	0x3f02a000	0.5102539
180	0x3f64e000	0.89404297
181	0xbee56000	-0.44799805
182	0x3dd90000	0.10595703
183	0xbf7e8000	-0.9941406
184	0xbf478000	-0.7792969
185	0xbf206000	-0.62646484
186	0xbf72c000	-0.9482422
187	0x3ea28000	0.3173828
188	0xbe7b2000	-0.24523926
189	0x3f782000	0.9692383
190	0x3f2ee000	0.68310547
191	0x3f3ae000	0.72998047
192	0x3f7bc000	0.98339844
193	0xbe38c000	-0.18041992
194	0x3ec26000	0.37963867
195	0xbf6ce000	-0.92529297
196	0xbf12c000	-0.5732422
197	0xbf51c000	-0.81933594
198	0xbf7fc000	-0.99902344
199	0x3d232000	0.03982544
200	0xbf01a000	-0.50634766
201	0x3f5cc000	0.8623047
202	0x3ee76000	0.4519043
203	0x3f646000	0.89208984
204	0x3f7ea000	0.9946289
205	0x3dd00000	0.1015625
206	0x3f1f8000	0.6230469
207	0xbf484000	-0.78222656
208	0xbea4a000	-0.3215332
209	0xbf726000	-0.94677734
210	0xbf788000	-0.9707031
211	0xbe76c000	-0.2409668
212	0xbf3a2000	-0.7270508
213	0x3f2fc000	0.68652344
214	0x3e3d4000	0.18481445
215	0x3f7ba000	0.98291016
216	0x3f6d4000	0.9267578
217	0x3ec04000	0.37548828
218	0x3f512000	0.81689453
219	0xbf13c000	-0.57714844
220	0xbd354000	-0.04425049
221	0xbf7fc000	-0.99902344
222	0xbf5d6000	-0.8647461
223	0xbf00a000	-0.5024414
224	0xbf63e000	-0.8901367
225	0x3ee98000	0.4560547
226	0xbdc70000	-0.09716797
227	0x3f7ec000	0.9951172
228	0x3f490000	0.78515625
229	0x3f1ea000	0.6196289
230	0x3f720000	0.9453125
231	0xbea6e000	-0.32592773
232	0x3e726000	0.23669434
233	0xbf78c000	-0.9716797
234	0xbf30a000	-0.6899414
235	0xbf396000	-0.7241211
236	0xbf7b6000	-0.9819336
237	0x3e41a000	0.18908691
238	0xbebe2000	-0.3713379
239	0x3f6dc000	0.92871094
240	0x3f14a000	0.5805664
241	0x3f506000	0.81396484
242	0x3f7fc000	0.99902344
243	0xbd476000	-0.048675537
244	0x3eff6000	0.4987793
245	0xbf5de000	-0.8666992
246	0xbeeb8000	-0.45996094
247	0xbf636000	-0.8881836
248	0xbf7ee000	-0.99560547
249	0xbdbe0000	-0.09277344
250	0xbf1dc000	-0.61621094
251	0x3f49a000	0.78759766
252	0x3ea90000	0.33007812
253	0x3f71a000	0.94384766
254	0x3f790000	0.97265625
255	0x3e6de000	0.2322998

encoder.layers.0.self_attn.k_proj.bias f4 [2]
0	0x00000000	0.0
1	0x00000000	0.0

encoder.layers.0.self_attn.v_proj.bias f4 [2]
0	0x00000000	0.0
1	0x00000000	0.0

encoder.layers.0.self_attn.q_proj.bias f4 [2]
0	0x00000000	0.0
1	0x00000000	0.0

encoder.layers.0.self_attn.out_proj.bias f4 [2]
0	0x00000000	0.0
1	0x00000000	0.0

encoder.layers.0.self_attn_layer_norm.weight f4 [2]
0	0x3f800000	1.0
1	0x3f800000	1.0

encoder.layers.0.self_attn_layer_norm.bias f4 [2]
0	0x00000000	0.0
1	0x00000000	0.0

encoder.layers.0.fc1.bias f4 [2]
0	0x00000000	0.0
1	0x00000000	0.0

encoder.layers.0.fc2.bias f4 [2]
0	0x00000000	0.0
1	0x00000000	0.0

encoder.layers.0.final_layer_norm.weight f4 [2]
0	0x3f800000	1.0
1	0x3f800000	1.0

encoder.layers.0.final_layer_norm.bias f4 [2]
0	0x00000000	0.0
1	0x00000000	0.0

encoder.layers.1.self_attn.k_proj.bias f4 [2]
0	0x00000000	0.0
1	0x00000000	0.0

encoder.layers.1.self_attn.v_proj.bias f4 [2]
0	0x00000000	0.0
1	0x00000000	0.0

encoder.layers.1.self_attn.q_proj.bias f4 [2]
0	0x00000000	0.0
1	0x00000000	0.0

encoder.layers.1.self_attn.out_proj.bias f4 [2]
0	0x00000000	0.0
1	0x00000000	0.0

encoder.layers.1.self_attn_layer_norm.weight f4 [2]
0	0x3f800000	1.0
1	0x3f800000	1.0

encoder.layers.1.self_attn_layer_norm.bias f4 [2]
0	0x00000000	0.0
1	0x00000000	0.0

encoder.layers.1.fc1.bias f4 [2]
0	0x00000000	0.0
1	0x00000000	0.0

encoder.layers.1.fc2.bias f4 [2]
0	0x00000000	0.0
1	0x00000000	0.0

encoder.layers.1.final_layer_norm.weight f4 [2]
0	0x3f800000	1.0
1	0x3f800000	1.0

encoder.layers.1.final_layer_norm.bias f4 [2]
0	0x00000000	0.0
1	0x00000000	0.0

decoder.embed_positions.weight f4 [512, 2]
0	0x00000000	0.0
1	0x3f800000	1.0
2	0x3f576000	0.8413086
3	0x3f0a6000	0.54052734
4	0x3f68c000	0.9091797
5	0xbed52000	-0.41625977
6	0x3e108000	0.14111328
7	0xbf7d8000	-0.9902344
8	0xbf41c000	-0.75683594
9	0xbf276000	-0.6538086
10	0xbf758000	-0.9589844
11	0x3e914000	0.2836914
12	0xbe8f0000	-0.27929688
13	0x3f75c000	0.95996094
14	0x3f284000	0.65722656
15	0x3f410000	0.75390625
16	0x3f7d4000	0.9892578
17	0xbe150000	-0.14550781
18	0x3ed30000	0.41210938
19	0xbf694000	-0.9111328
20	0xbf0b4000	-0.5439453
21	0xbf56c000	-0.8388672
22	0xbf800000	-1.0
23	0x3b910000	0.004425049
24	0xbf096000	-0.5366211
25	0x3f580000	0.84375
26	0x3ed72000	0.42016602
27	0x3f684000	0.90722656
28	0x3f7da000	0.99072266
29	0x3e0c0000	0.13671875
30	0x3f268000	0.6503906
31	0xbf428000	-0.7597656
32	0xbe936000	-0.2878418
33	0xbf752000	-0.95751953
34	0xbf762000	-0.9614258
35	0xbe8ce000	-0.27514648
36	0xbf404000	-0.75097656
37	0x3f290000	0.66015625
38	0x3e198000	0.14990234
39	0x3f7d2000	0.98876953
40	0x3f69c000	0.91308594
41	0x3ed10000	0.40820312
42	0x3f562000	0.8364258
43	0xbf0c4000	-0.54785156
44	0xbc110000	-0.008850098
45	0xbf800000	-1.0
46	0xbf58a000	-0.8461914
47	0xbf086000	-0.53271484
48	0xbf67e000	-0.9057617
49	0x3ed92000	0.42407227
50	0xbe078000	-0.13232422
51	0x3f7dc000	0.99121094
52	0x3f434000	0.7626953
53	0x3f25a000	0.64697266
54	0x3f74e000	0.95654297
55	0xbe95a000	-0.29223633
56	0x3e8ac000	0.2709961
57	0xbf766000	-0.96240234
58	0xbf29e000	-0.6635742
59	0xbf3f8000	-0.7480469
60	0xbf7ce000	-0.98779297
61	0x3e1e0000	0.15429688
62	0xbecee000	-0.40405273
63	0x3f6a2000	0.9145508
64	0x3f0d2000	0.55126953
65	0x3f558000	0.8339844
66	0x3f800000	1.0
67	0xbc598000	-0.0132751465
68	0x3f078000	0.5292969
69	0xbf594000	-0.8486328
70	0xbedb4000	-0.42822266
71	0xbf676000	-0.9038086
72	0xbf7de000	-0.9916992
73	0xbe030000	-0.12792969
74	0xbf24c000	-0.6435547
75	0x3f440000	0.765625
76	0x3e97c000	0.29638672
77	0x3f748000	0.9550781
78	0x3f76c000	0.9638672
79	0x3e888000	0.26660156
80	0x3f3ec000	0.7451172
81	0xbf2ac000	-0.6669922
82	0xbe226000	-0.15856934
83	0xbf7cc000	-0.9873047
84	0xbf6aa000	-0.9165039
85	0xbeccc000	-0.39990234
86	0xbf54e000	-0.83154297
87	0x3f0e2000	0.5551758
88	0x3c910000	0.017700195
89	0x3f800000	1.0
90	0x3f59e000	0.8510742
91	0x3f068000	0.5253906
92	0x3f66e000	0.90185547
93	0xbedd4000	-0.4321289
94	0x3dfd2000	0.12359619
95	0xbf7e0000	-0.9921875
96	0xbf44a000	-0.7680664
97	0xbf23e000	-0.6401367
98	0xbf742000	-0.9536133
99	0x3e99e000	0.3005371
100	0xbe866000	-0.26245117
101	0x3f770000	0.96484375
102	0x3f2ba000	0.67041016
103	0x3f3e0000	0.7421875
104	0x3f7ca000	0.9868164
105	0xbe26e000	-0.16296387
106	0x3ecac000	0.3959961
107	0xbf6b2000	-0.91845703
108	0xbf0f0000	-0.55859375
109	0xbf544000	-0.82910156
110	0xbf7fe000	-0.9995117
111	0x3cb54000	0.022125244
112	0xbf058000	-0.5214844
113	0x3f5a6000	0.85302734
114	0x3edf6000	0.4362793
115	0x3f666000	0.89990234
116	0x3f7e2000	0.9926758
117	0x3df42000	0.11920166
118	0x3f230000	0.63671875
119	0xbf456000	-0.7709961
120	0xbe9c2000	-0.30493164
121	0xbf73e000	-0.9526367
122	0xbf776000	-0.9663086
123	0xbe842000	-0.25805664
124	0xbf3d4000	-0.7392578
125	0x3f2c6000	0.67333984
126	0x3e2b6000	0.1673584
127	0x3f7c6000	0.98583984
128	0x3f6b8000	0.9199219
129	0x3ec8a000	0.3918457
130	0x3f53a000	0.82666016
131	0xbf100000	-0.5625
132	0xbcd98000	-0.026550293
133	0xbf7fe000	-0.9995117
134	0xbf5b0000	-0.85546875
135	0xbf048000	-0.5175781
136	0xbf65e000	-0.8979492
137	0x3ee16000	0.44018555
138	0xbdeb2000	-0.11480713
139	0x3f7e4000	0.99316406
140	0x3f462000	0.7739258
141	0x3f222000	0.6333008
142	0x3f738000	0.9511719
143	0xbe9e4000	-0.30908203
144	0x3e820000	0.25390625
145	0xbf77a000	-0.96728516
146	0xbf2d4000	-0.6767578
147	0xbf3c8000	-0.7363281
148	0xbf7c4000	-0.98535156
149	0x3e2fe000	0.17175293
150	0xbec68000	-0.3876953
151	0x3f6c0000	0.921875
152	0x3f10e000	0.56591797
153	0x3f530000	0.82421875
154	0x3f7fe000	0.9995117
155	0xbcfdc000	-0.030975342
156	0x3f03a000	0.51416016
157	0xbf5ba000	-0.85791016
158	0xbee36000	-0.4440918
159	0xbf656000	-0.8959961
160	0xbf7e6000	-0.99365234
161	0xbde22000	-0.1104126
162	0xbf214000	-0.6298828
163	0x3f46e000	0.77685547
164	0x3ea06000	0.31323242
165	0x3f732000	0.94970703
166	0x3f77e000	0.9682617
167	0x3e7f8000	0.24951172
168	0x3f3bc000	0.73339844
169	0xbf2e2000	-0.6801758
170	0xbe344000	-0.17602539
171	0xbf7c0000	-0.984375
172	0xbf6c6000	-0.92333984
173	0xbec48000	-0.38378906
174	0xbf526000	-0.82177734
175	0x3f11e000	0.5698242
176	0x3d110000	0.03540039
177	0x3f7fe000	0.9995117
178	0x3f5c2000	0.8598633
179	0x3f02a000	0.5102539
180	0x3f64e000	0.89404297
181	0xbee56000	-0.44799805
182	0x3dd90000	0.10595703
183	0xbf7e8000	-0.9941406
184	0xbf478000	-0.7792969
185	0xbf206000	-0.62646484
186	0xbf72c000	-0.9482422
187	0x3ea28000	0.3173828
188	0xbe7b2000	-0.24523926
189	0x3f782000	0.9692383
190	0x3f2ee000	0.68310547
191	0x3f3ae000	0.72998047
192	0x3f7bc000	0.98339844
193	0xbe38c000	-0.18041992
194	0x3ec26000	0.37963867
195	0xbf6ce000	-0.92529297
196	0xbf12c000	-0.5732422
197	0xbf51c000	-0.81933594
198	0xbf7fc000	-0.99902344
199	0x3d232000	0.03982544
200	0xbf01a000	-0.50634766
201	0x3f5cc000	0.8623047
202	0x3ee76000	0.4519043
203	0x3f646000	0.89208984
204	0x3f7ea000	0.9946289
205	0x3dd00000	0.1015625
206	0x3f1f8000	0.6230469
207	0xbf484000	-0.78222656
208	0xbea4a000	-0.3215332
209	0xbf726000	-0.94677734
210	0xbf788000	-0.9707031
211	0xbe76c000	-0.2409668
212	0xbf3a2000	-0.7270508
213	0x3f2fc000	0.68652344
214	0x3e3d4000	0.18481445
215	0x3f7ba000	0.98291016
216	0x3f6d4000	0.9267578
217	0x3ec04000	0.37548828
218	0x3f512000	0.81689453
219	0xbf13c000	-0.57714844
220	0xbd354000	-0.04425049
221	0xbf7fc000	-0.99902344
222	0xbf5d6000	-0.8647461
223	0xbf00a000	-0.5024414
224	0xbf63e000	-0.8901367
225	0x3ee98000	0.4560547
226	0xbdc70000	-0.09716797
227	0x3f7ec000	0.9951172
228	0x3f490000	0.78515625
229	0x3f1ea000	0.6196289
230	0x3f720000	0.9453125
231	0xbea6e000	-0.32592773
232	0x3e726000	0.23669434
233	0xbf78c000	-0.9716797
234	0xbf30a000	-0.6899414
235	0xbf396000	-0.7241211
236	0xbf7b6000	-0.9819336
237	0x3e41a000	0.18908691
238	0xbebe2000	-0.3713379
239	0x3f6dc000	0.92871094
240	0x3f14a000	0.5805664
241	0x3f506000	0.81396484
242	0x3f7fc000	0.99902344
243	0xbd476000	-0.048675537
244	0x3eff6000	0.4987793
245	0xbf5de000	-0.8666992
246	0xbeeb8000	-0.45996094
247	0xbf636000	-0.8881836
248	0xbf7ee000	-0.99560547
249	0xbdbe0000	-0.09277344
250	0xbf1dc000	-0.61621094
251	0x3f49a000	0.78759766
252	0x3ea90000	0.33007812
253	0x3f71a000	0.94384766
254	0x3f790000	0.97265625
255	0x3e6de000	0.2322998

decoder.layers.0.self_attn.k_proj.bias f4 [2]
0	0x00000000	0.0
1	0x00000000	0.0

decoder.layers.0.self_attn.v_proj.bias f4 [2]
0	0x00000000	0.0
1	0x00000000	0.0

decoder.layers.0.self_attn.q_proj.bias f4 [2]
0	0x00000000	0.0
1	0x00000000	0.0

decoder.layers.0.self_attn.out_proj.bias f4 [2]
0	0x00000000	0.0
1	0x00000000	0.0

decoder.layers.0.self_attn_layer_norm.weight f4 [2]
0	0x3f800000	1.0
1	0x3f800000	1.0

decoder.layers.0.self_attn_layer_norm.bias f4 [2]
0	0x00000000	0.0
1	0x00000000	0.0

decoder.layers.0.encoder_attn.k_proj.bias f4 [2]
0	0x00000000	0.0
1	0x00000000	0.0

decoder.layers.0.encoder_attn.v_proj.bias f4 [2]
0	0x00000000	0.0
1	0x00000000	0.0

decoder.layers.0.encoder_attn.q_proj.bias f4 [2]
0	0x00000000	0.0
1	0x00000000	0.0

decoder.layers.0.encoder_attn.out_proj.bias f4 [2]
0	0x00000000	0.0
1	0x00000000	0.0

decoder.layers.0.encoder_attn_layer_norm.weight f4 [2]
0	0x3f800000	1.0
1	0x3f800000	1.0

decoder.layers.0.encoder_attn_layer_norm.bias f4 [2]
0	0x00000000	0.0
1	0x00000000	0.0

decoder.layers.0.fc1.bias f4 [2]
0	0x00000000	0.0
1	0x00000000	0.0

decoder.layers.0.fc2.bias f4 [2]
0	0x00000000	0.0
1	0x00000000	0.0

decoder.layers.0.final_layer_norm.weight f4 [2]
0	0x3f800000	1.0
1	0x3f800000	1.0

decoder.layers.0.final_layer_norm.bias f4 [2]
0	0x00000000	0.0
1	0x00000000	0.0

decoder.layers.1.self_attn.k_proj.bias f4 [2]
0	0x00000000	0.0
1	0x00000000	0.0

decoder.layers.1.self_attn.v_proj.bias f4 [2]
0	0x00000000	0.0
1	0x00000000	0.0

decoder.layers.1.self_attn.q_proj.bias f4 [2]
0	0x00000000	0.0
1	0x00000000	0.0

decoder.layers.1.self_attn.out_proj.bias f4 [2]
0	0x00000000	0.0
1	0x00000000	0.0

decoder.layers.1.self_attn_layer_norm.weight f4 [2]
0	0x3f800000	1.0
1	0x3f800000	1.0

decoder.layers.1.self_attn_layer_norm.bias f4 [2]
0	0x00000000	0.0
1	0x00000000	0.0

decoder.layers.1.encoder_attn.k_proj.bias f4 [2]
0	0x00000000	0.0
1	0x00000000	0.0

decoder.layers.1.encoder_attn.v_proj.bias f4 [2]
0	0x00000000	0.0
1	0x00000000	0.0

decoder.layers.1.encoder_attn.q_proj.bias f4 [2]
0	0x00000000	0.0
1	0x00000000	0.0

decoder.layers.1.encoder_attn.out_proj.bias f4 [2]
0	0x00000000	0.0
1	0x00000000	0.0

decoder.layers.1.encoder_attn_layer_norm.weight f4 [2]
0	0x3f800000	1.0
1	0x3f800000	1.0

decoder.layers.1.encoder_attn_layer_norm.bias f4 [2]
0	0x00000000	0.0
1	0x00000000	0.0

decoder.layers.1.fc1.bias f4 [2]
0	0x00000000	0.0
1	0x00000000	0.0

decoder.layers.1.fc2.bias f4 [2]
0	0x00000000	0.0
1	0x00000000	0.0

decoder.layers.1.final_layer_norm.weight f4 [2]
0	0x3f800000	1.0
1	0x3f800000	1.0

decoder.layers.1.final_layer_norm.bias f4 [2]
0	0x00000000	0.0
1	0x00000000	0.0

1186 f4 [2, 2]
0	0x39220000	0.00015449524
1	0xbb732000	-0.003709793
2	0x3b94e000	0.0045433044
3	0x3bfc0000	0.0076904297

1187 f4 [2, 2]
0	0x3c948000	0.018127441
1	0x3c304000	0.010757446
2	0x3c5e4000	0.0135650635
3	0xbd350000	-0.044189453

1191 f4 [2, 2]
0	0x3a038000	0.0005016327
1	0xbc9ee000	-0.01939392
2	0x3c966000	0.018356323
3	0xbc712000	-0.014717102

1206 f4 [2, 2]
0	0xbace6000	-0.0015745163
1	0x3d20c000	0.039245605
2	0x3c9a8000	0.018859863
3	0xbc030000	-0.0079956055

1207 f4 [2, 2]
0	0x3d222000	0.0395813
1	0x3c14e000	0.009086609
2	0xbbf9c000	-0.007621765
3	0xbcc3e000	-0.023910522

1208 f4 [2, 2]
0	0xbd09a000	-0.033599854
1	0xbaf0c000	-0.0018367767
2	0x3cc28000	0.023742676
3	0x3b478000	0.0030441284

1209 f4 [2, 2]
0	0x3d186000	0.037200928
1	0xbae10000	-0.0017166138
2	0x3ba22000	0.0049476624
3	0xbc40a000	-0.011756897

1210 f4 [2, 2]
0	0x3c74a000	0.014930725
1	0xbc574000	-0.013137817
2	0x3bcda000	0.006275177
3	0xbb5c2000	-0.003358841

1214 f4 [2, 2]
0	0xbbe46000	-0.006969452
1	0xbd2b0000	-0.041748047
2	0xbc256000	-0.010093689
3	0xbcade000	-0.021224976

1229 f4 [2, 2]
0	0xbc14a000	-0.00907135
1	0xbc292000	-0.010322571
2	0xbc2b0000	-0.010437012
3	0xbbb4c000	-0.0055160522

1230 f4 [2, 2]
0	0x3b634000	0.0034675598
1	0x3cb4a000	0.02204895
2	0x3c842000	0.01612854
3	0xbb580000	-0.0032958984

1231 f4 [2, 2]
0	0x3c052000	0.008125305
1	0xbb87c000	-0.004142761
2	0x3b548000	0.0032424927
3	0x3b1f2000	0.0024280548

1238 f4 [2, 2]
0	0x3c9a2000	0.018814087
1	0x3c604000	0.013687134
2	0xbc570000	-0.013122559
3	0xbd306000	-0.043060303

1239 f4 [2, 2]
0	0xb89ae000	-7.3850155e-05
1	0xbd314000	-0.043273926
2	0x3cfa6000	0.030563354
3	0x3caf0000	0.021362305

1243 f4 [2, 2]
0	0x3afc6000	0.0019254684
1	0xbb626000	-0.0034542084
2	0x3cc24000	0.023712158
3	0xbc5fa000	-0.013648987

1258 f4 [2, 2]
0	0xbc884000	-0.01663208
1	0xbcadc000	-0.021209717
2	0x3cdc4000	0.026885986
3	0xba0cc000	-0.00053691864

1259 f4 [2, 2]
0	0xbc7ea000	-0.015541077
1	0xbce06000	-0.027389526
2	0xbc970000	-0.018432617
3	0xbc07c000	-0.008285522

1260 f4 [2, 2]
0	0xbcd08000	-0.02545166
1	0x3bf4a000	0.0074653625
2	0xbcda0000	-0.026611328
3	0xbc85c000	-0.016326904

1264 f4 [2, 2]
0	0x3c86e000	0.016464233
1	0x3aa52000	0.0012598038
2	0xb909e000	-0.00013148785
3	0xbce7c000	-0.028289795

1279 f4 [2, 2]
0	0xbc1ca000	-0.009559631
1	0x3b086000	0.0020809174
2	0xbd1dc000	-0.038513184
3	0x3c55e000	0.013053894

1280 f4 [2, 2]
0	0x3b0a0000	0.002105713
1	0xbc434000	-0.011917114
2	0x3cf0e000	0.029403687
3	0x3cf34000	0.029693604

1281 f4 [2, 2]
0	0xbca3c000	-0.019989014
1	0xbc218000	-0.009857178
2	0x3c1f8000	0.009735107
3	0xbc8f4000	-0.017486572

1282 f4 [2, 2]
0	0xbc8f2000	-0.017471313
1	0xbaff2000	-0.0019464493
2	0xbce38000	-0.027770996
3	0x3aa4c000	0.0012569427

1283 f4 [2, 2]
0	0xbcd04000	-0.025421143
1	0xb996c000	-0.0002875328
2	0xbc8e4000	-0.017364502
3	0xbc7f6000	-0.015586853

1287 f4 [2, 2]
0	0x3caf2000	0.021377563
1	0x3c51c000	0.012802124
2	0x3c788000	0.015167236
3	0x3a5c0000	0.0008392334

1302 f4 [2, 2]
0	0xbc82a000	-0.015945435
1	0xbc442000	-0.01197052
2	0xbd034000	-0.032043457
3	0x3b1d0000	0.0023956299

1303 f4 [2, 2]
0	0xbd31a000	-0.04336548
1	0xbc530000	-0.012878418
2	0x391a2000	0.00014698505
3	0xbc5d2000	-0.013496399

1304 f4 [2, 2]
0	0xbc6c8000	-0.014434814
1	0xbce96000	-0.02848816
2	0x3c134000	0.008987427
3	0x3d14a000	0.0362854

1308 f4 [2, 2]
0	0xbc23c000	-0.009994507
1	0xbc6e8000	-0.014556885
2	0xbc626000	-0.0138168335
3	0x3af98000	0.0019035339

1323 f4 [2, 2]
0	0x3c90c000	0.017669678
1	0x3ca44000	0.020050049
2	0x3cb08000	0.02154541
3	0x3c43e000	0.011955261

1324 f4 [2, 2]
0	0x3c5ec000	0.013595581
1	0x3bcca000	0.0062446594
2	0x3c392000	0.011299133
3	0x3d0e2000	0.034698486

1325 f4 [2, 2]
0	0x3ce02000	0.027359009
1	0x3c6d4000	0.014480591
2	0x3c6aa000	0.014320374
3	0xba824000	-0.0009937286
